…
          "base_uri": "https://localhost:8080/"
        },
        "id": "3E6UWoeaotDI",
        "outputId": "1fc16b6a-75c7-4d10-eecd-bc0841dee251"
      },
      "execution_count": 11,
      "outputs": [
        {
          "output_type": "stream",
          "name": "stdout",
          "text": [
            "Model: \"sequential\"\n",
            "_________________________________________________________________\n",
            " Layer (type)                Output Shape              Param #   \n",
            "=================================================================\n",
            " dense (Dense)               (None, 256)               200960    \n",
            "                                                                 \n",
            " activation (Activation)     (None, 256)               0         \n",
            "                                                                 \n",
            " dropout (Dropout)           (None, 256)               0         \n",
            "                                                                 \n",
            " dense_1 (Dense)             (None, 256)               65792     \n",
            "                                                                 \n",
            " activation_1 (Activation)   (None, 256)               0         \n",
            "                                                                 \n",
            " dropout_1 (Dropout)         (None, 256)               0         \n",
            "                                                                 \n",
            " dense_2 (Dense)             (None, 10)                2570      \n",
            "                                                                 \n",
            " activation_2 (Activation)   (None, 10)                0         \n",
            "                                                                 \n",
            "=================================================================\n",
            "Total params: 269,322\n",
            "Trainable params: 269,322\n",
            "Non-trainable params: 0\n",
            "_________________________________________________________________\n"
          ]
        }
…
